…
      },
      "outputs": [
        {
          "output_type": "stream",
          "name": "stdout",
          "text": [
            "Help on function summary in module torchsummary.torchsummary:\n",
            "\n",
            "summary(model, input_size, batch_size=-1, device='cuda')\n",
            "\n",
            "----------------------------------------------------------------\n",
            "        Layer (type)               Output Shape         Param #\n",
            "================================================================\n",
            "           Flatten-1                  [64, 784]               0\n",
            "            Linear-2                  [64, 200]         157,000\n",
            "              ReLU-3                  [64, 200]               0\n",
            "            Linear-4                  [64, 200]          40,200\n",
            "              ReLU-5                  [64, 200]               0\n",
            "            Linear-6                   [64, 10]           2,010\n",
            "================================================================\n",
            "Total params: 199,210\n",
            "Trainable params: 199,210\n",
            "Non-trainable params: 0\n",
            "----------------------------------------------------------------\n",
            "Input size (MB): 0.19\n",
            "Forward/backward pass size (MB): 0.78\n",
            "Params size (MB): 0.76\n",
…
